models/actors.pt (torch, 21267 bytes, 4 tensors)

fc.0.weight f4 [128, 31]
00000000: bf2e 00be 707d a43c 400c 813c 84c5 9f3d
00000010: 7c82 253d d896 92bd 524c 053e 5008 323d
00000020: 9ca6 563d e4b4 2c3e 8a10 353e 0701 0b3e
00000030: 487b f93c a96a b2bd f99b cbbd 6c15 173d
00000040: 0057 be3a e474 2dbd 8000 15bc 4a85 8bbd
00000050: f3e6 b03c 9436 f4bd d040 73bd 7dd6 0b3e
00000060: a621 e1bd e9c9 a4bd 14ec 5e3d 00bf 6bbc
00000070: 247a a73d d411 693d f751 b93d 8d08 f03d
00000080: cc73 85be 72c3 d0bd 56b9 e1bd 6457 a53d
00000090: c884 4cbd aee1 b1bd 1872 253d 0daa ebbd
000000a0: 74c7 e03d ffdd 363d cc56 b8bc f88e 2f3d
000000b0: 4c2c 05bd 28b0 ac3d d014 3abd 339b 35be
000000c0: e0dd 0c3e 8c38 f23d 4840 b6bc 51fd 6abd
000000d0: 566b 263e ccc8 54be 5693 50bc 181a aabd
000000e0: 4fcb 1d3e 908a c6bc 74b0 e63d 9932 07be
000000f0: 8ceb 0cbd ea80 41be ccb0 2c3d 4b1d 45bc
00000100: fa74 0b3e 6218 243e a6da 043e 305c d23d
00000110: e824 32be 3b70 12be 40cf 443b 08ce ebbc
00000120: 7536 b3bd 4628 94bd c0a7 e1bb f416 1abe
00000130: 44cf 923d ac7a 213d 3ae3 2e3e edae 0dbe
00000140: 36a0 0c3e 6c69 c43d 71f6 613d ac09 043e
00000150: 2216 93bd d8e7 aabc 5f8e 1c3e 0e0d 30be
00000160: 9081 d63d 9db1 01be 906b 513c 30cb f2bd
00000170: 78fa 0cbb 1c10 973d 86ec 65bd b462 51bd
00000180: 4a50 113e 19fa b6bd af4c eebd 13b7 16be
00000190: 288a 20bd 902c 213e 7a52 1e3e c2f9 813d
000001a0: 9b4b 9abd 9833 6e3d fa99 2abe 1c19 ce3d
000001b0: 99d2 b9bd cec7 263e 5015 a9bc 48c9 e63d
000001c0: 6009 46bc 5033 cd3d b8a1 19bd 43bf 21be
000001d0: 4830 dd3d 7beb c6bd acf3 91bd f03f 583d
000001e0: 5675 11be 403f 013e e4a7 1cbe e4ec 013e
000001f0: 7216 7dbc 22e1 d63c d803 8cbc d13c 13be
00000200: 06f4 033e 3ca8 143e f4f7 50bd 80b1 eebc
00000210: 8316 22be 2ee2 893d 2e3c 123e d62f c6ba
00000220: 18d5 46bd 7cb7 e33d e043 c13c 4c17 33be
00000230: 80fa 2d3d 1838 7ebd a2d9 1e3e ca9d 2b3e
00000240: 08e1 a4bd 0c3d c2bc 221d 78bd 4f7b b9bd
00000250: 7fe1 59bd e6d4 083e 3283 2b3e e0f1 ff3d
00000260: cc6b 753d 8e2c 25be 1eaa 253d f06d 5f3e
00000270: 1419 9fbc 7e80 f1bd 1e91 8b3d f046 793c
00000280: b22f 1e3e 1c9b de3d a041 9dbb 5463 403d
00000290: c68d 99bd 47c6 b93d afeb 31be 7049 313e
000002a0: 7c58 c53d 5434 57bd 30a2 083e 7a0c 09be
000002b0: 8037 8e3d 4044 733c 75a7 8dbd 5d09 e53d
000002c0: 5a06 35ba 85e4 993d 7502 113e 8d81 f2bd
000002d0: c242 8dbc 25b0 96bd 6c3d 5abd 9c2a b33d
000002e0: 98ef 41bd 35d6 4bbe ec02 7d3d a802 55bd
000002f0: f0e4 07bd 40e5 c33c c4da 05bd 7247 05be
00000300: 471b 33be 643c 21bd 3293 343e c6e7 8e3d
00000310: 8ce1 d93d 3086 313c b1be 10be 0534 e0bd
00000320: ee4f 18be 9040 c0bc 08b6 0f3e 813d 21be
00000330: ad68 abbd b435 eebd d8fa 81bc d2e0 333e
00000340: c50f 1dbe e91c 30be 808b a83d bb21 33be
00000350: 0862 013e 5054 cb3c 48fc e53c 72fc 1d3e
00000360: d013 c43c 7da2 25bc b24e 3ebe 0ea2 1c3e
00000370: 7de7 32be 7cb9 f03d dcec 01be 0050 b039
00000380: 8c5b 6cbd cc6e 0cbe 8c50 e73d eadf e9bd
00000390: d106 1abe f007 423d cc4f afbd d049 efbc
000003a0: c0f4 853c ec94 09be b171 31be 9a47 313e
000003b0: 6b74 b0bd af8d 9238 f355 43bd 5cc9 20be
000003c0: 4b98 65bd afbf b43d 3179 b5bd 7c7e 1b3e
000003d0: 208b 613d ead8 203e a26d 363e bcfd 113d
000003e0: b49d de3d f9ce 313e dbc5 19be 58f7 0e3e
000003f0: f80a 0a3e dc11 2d3e 752a 35be f845 e4bc
-0.12517832 0.020079345 0.015752912 0.07801345 0.040407643 -0.071576774 0.13017395 0.04346496
0.052404985 0.1686588 0.1768209 0.1357461 0.030454293 -0.0871175 -0.09941859 0.036885664
0.0014521778 -0.042347804 -0.0090943575 -0.06812532 0.0215945 -0.119244725 -0.059387982 0.1365604
-0.10992746 -0.08046324 0.05442436 -0.0143888 0.08177593 0.056901768 0.09048837 0.11720381
-0.26064909 -0.10193528 -0.11021678 0.08073309 -0.049931318 -0.08685623 0.04039201 -0.11507044
0.10975543 0.044645306 -0.022502325 0.042860955 -0.032512948 0.08432037 -0.045430005 -0.17734985
0.13756514 0.11827192 -0.022247449 -0.057370488 0.16251883 -0.20779723 -0.01273044 -0.08305758
0.15409587 -0.024235994 0.112641245 -0.13202895 -0.034404323 -0.18896833 0.042160794 -0.01203091
0.13618842 0.16024926 0.12974033 0.102714896 -0.17396891 -0.14300625 0.0030030757 -0.028784767
-0.08750621 -0.07234244 -0.0068864524 -0.15047818 0.07168439 0.03942363 0.17078868 -0.1383626
0.1373299 0.0959042 0.055166665 0.12894315 -0.07181956 -0.020862505 0.15288685 -0.1719248
0.10473931 -0.1266541 0.012781993 -0.11855161 -0.0021511596 0.073761195 -0.05613377 -0.05111952
0.14190784 -0.08934421 -0.1163572 -0.14718275 -0.039194256 0.15739655 0.1546115 0.06346466
-0.07533952 0.058154672 -0.166603 0.10063383 -0.090733714 0.16287157 -0.020640045 0.1126886
-0.012087196 0.10019553 -0.037507743 -0.15795617 0.108002245 -0.09712883 -0.07126555 0.05279535
-0.14204916 0.12621784 -0.1529842 0.12688023 -0.015447246 0.026230399 -0.017091677 -0.14378668
0.12886056 0.14517301 -0.051017717 -0.029137373 -0.158289 0.067325935 0.14280769 -0.0015120457
-0.048543066 0.11118981 0.023591936 -0.17489356 0.042475224 -0.062065214 0.15512708 0.1675941
-0.08050734 -0.02371075 -0.06057466 -0.090567224 -0.053193565 0.13362464 0.16749266 0.12497306
0.059917256 -0.16130278 0.04044544 0.21819282 -0.019421138 -0.11792086 0.06814788 0.015214667
0.15447882 0.108694285 -0.004799083 0.046969727 -0.07497744 0.090710215 -0.17375062 0.1731317
0.09636018 -0.05254014 0.1334312 -0.13383666 0.069441795 0.014847815 -0.069167055 0.111834265
-0.00069055485 0.0751429 0.14161094 -0.11841116 -0.017243747 -0.07357816 -0.053281233 0.087483615
-0.047347635 -0.19905932 0.061770365 -0.052004486 -0.033177316 0.023913026 -0.032679334 -0.13015535
-0.17490874 -0.039364234 0.17634276 0.06977801 0.10638723 0.010835215 -0.14135243 -0.10947422
-0.14874241 -0.023468286 0.14034283 -0.15746118 -0.08369575 -0.11631337 -0.015866682 0.17566231
-0.15338047 -0.17198528 0.082297325 -0.17493336 0.12635052 0.024820477 0.028074399 0.15428331
0.023935229 -0.010109541 -0.18584707 0.15296194 -0.17471118 0.11754128 -0.12688011 0.0003362894
-0.057704493 -0.1371414 0.1129466 -0.11419661 -0.15041663 0.04737085 -0.08560142 -0.029210001
0.016352057 -0.13435715 -0.17328526 0.1731247 -0.08615955 6.988213e-05 -0.04768939 -0.15701813
-0.05605344 0.08825623 -0.08861006 0.15184969 0.05506432 0.15707746 0.17815259 0.03564237
0.10869923 0.1736411 -0.15016882 0.13961542 0.13480747 0.16901344 -0.17691977 -0.027865395

fc.0.bias f4 [128]
00000000: d133 4cbe bc4c ccbd c0d5 2bbe aabd 17be
00000010: 8657 34be e15c 2bbe 911c 2abe 0862 203d
00000020: 1b66 e63c 9679 ee3d 7396 42bd 670d 033d
00000030: 9d1a bf3c 73aa 1b3c 504e 3e3e 6702 6ebd
00000040: c53c f43c 4309 01be cdd7 913d 48e9 643e
00000050: 17ab f9bd f618 6d3e c716 1cbe 9398 89bb
00000060: 1f34 bfbc 9960 27bd 7ef1 d1bc 56a6 14bd
00000070: eb8a cb3c 7165 92bd 8fcc 053d 2fa7 e23d
00000080: f834 90bd 006c c13c 8257 1fbe 5f26 c43d
00000090: 9952 673e 3064 ba3d 3e12 823e 8659 243e
000000a0: 873b 24be 9edf cdbd ded3 0b3e 0030 8cba
000000b0: 9980 713e a83f 8d3e 1251 18bd 3c15 eb3d
000000c0: 9b82 2bbe deb2 7a3e d03a 3e3d 9652 263e
000000d0: 6c31 8fbd 2e76 11bb a5a8 f6bd 491e 2fbe
000000e0: 7f99 523e 428b 26bc d9c0 02ba bfe0 d9bd
000000f0: abcd 033e 8215 173e e604 f7bd 3af7 1b3e
00000100: 350b 0d3d 6e39 77bd 5a7f 1fbb 1b29 3b3e
00000110: 0952 d03d fa83 1d3d ca09 0ebd d2d9 febd
00000120: 5c7d 933e 6795 babc 0fbd 26be c05a 80bd
00000130: bcd9 9b3d 3df9 973d 4163 20be 7eec 423d
00000140: 4be6 1d3e 87ab a03d c56f e83d 67e9 2fbe
00000150: a68c 913d fece 25be ec7a 003d f689 103e
00000160: 933b 1cbd 9a29 283e 701b 15be 6e10 843e
00000170: 9e31 163e 38b5 41be e2fb 86bd 131c 8c3d
00000180: e2e1 cc3d 3fa0 00be 4683 42be 5046 dcbd
00000190: e224 f6bc f395 24be 39d4 063d ea9e e6bd
000001a0: 6d2b a33d 5510 b63d 9847 64bc e810 11bd
000001b0: a04b 1abe e1f8 82bd 9444 d23d 41d4 613d
000001c0: 0f1e 83bd 5fa1 85bd 69ce ac3d 745d c13d
000001d0: a708 a73d 8fef c4bd 15c8 8fbd b4e1 a6bd
000001e0: 8eea 2c3d 72e9 363d 6025 a4bd dcb2 853d
000001f0: 4024 393e 5547 973d 8963 c73d 05ea cabd
-0.19941641 -0.099755734 -0.16780758 -0.14818445 -0.17611513 -0.16734649 -0.1661246 0.03915599
0.02812486 0.116442844 -0.04750676 0.031995203 0.02332812 0.0095010875 0.18584561 -0.05810776
0.029814133 -0.1260119 0.07121239 0.22354615 -0.12190836 0.23154053 -0.15243064 -0.0041990965
-0.023340283 -0.040863607 -0.025627848 -0.036291443 0.024846515 -0.07148255 0.032665785 0.11067044
-0.07041353 0.023611069 -0.15560725 0.09577631 0.22590102 0.091011405 0.25404543 0.16049775
-0.16038333 -0.10052417 0.1365504 -0.0010695457 0.23584212 0.27587628 -0.03718669 0.114786595
-0.16749041 0.24482295 0.046442807 0.16242442 -0.06991848 -0.0022195685 -0.12043885 -0.17101397
0.20566367 -0.010165038 -0.0004987843 -0.1063857 0.12871425 0.14754298 -0.12061481 0.15231028
0.034434516 -0.060357504 -0.0024337382 0.18277399 0.10171897 0.03845594 -0.034677304 -0.1244389
0.2880658 -0.022776319 -0.16283058 -0.06267309 0.07609889 0.07420585 -0.15662862 0.047588818
0.15419881 0.07845216 0.11349443 -0.1717888 0.07106905 -0.16192243 0.031367227 0.14115128
-0.038142752 0.1642212 -0.14561248 0.25793785 0.14667365 -0.18916786 -0.065910116 0.06841292
0.10004021 -0.12561129 -0.1899539 -0.107555985 -0.030046884 -0.16072826 0.032917235 -0.11260779
0.07967267 0.08889834 -0.013933085 -0.035416514 -0.15067911 -0.06395126 0.102669865 0.05513406
-0.064022176 -0.0652492 0.08437807 0.09441653 0.08155947 -0.09616005 -0.070205845 -0.08148518
0.042215876 0.044656225 -0.08014941 0.06528255 0.18080235 0.073866524 0.09735782 -0.09907917

fc.2.weight f4 [5, 128]
00000000: db4e cfbd d9a3 5dbd 7592 a6bd e3d1 b43d
00000010: 318d 83bc 1ef9 24bb 2cb8 8ebd 87e6 43bc
00000020: 72d6 c9bd 3e5e 88bd 6519 cabd 03f3 a53c
00000030: 8cd7 963c 258b afbd fcc7 d03d 8dcc 353c
00000040: ac26 993d 0bbf 043d 2ea9 863d 0f9f 49bd
00000050: 8700 1b3d 9ea3 8f3c c675 5abd 3a54 69bd
00000060: 278d 2dbd 6253 41bc 4ca4 353d 0ca7 82bd
00000070: 0993 983b d4bb b13d f43c 69bc 34e5 ae3b
00000080: fdd8 863c 50e7 3bbd e8f6 12bc a492 bcbd
00000090: f07c ea3c 5b3d 2bbd 9dd1 41bd 73cf 263d
000000a0: 2815 9e3d 303b 42bc 5e34 b43d 4c75 0c3d
000000b0: 4aed 8abd 9066 7ebd 5170 adbc 5926 aebd
000000c0: 860c 653d fe6e 46bd dad8 6a3d 1dcd dfbc
000000d0: 6152 f5bc 2ea0 4a3d a2e8 103d 3808 fdbc
000000e0: bba4 68bd cf01 e73c f01c b33b c229 f0bc
000000f0: f17d 19bc 29aa dd3c a3e4 513d 17dc 973d
00000100: c2c4 b4bd 398c 7cbd a38c 543d 2fd9 b23d
00000110: 48fc 8c3c ef74 b5bc 7802 da3c 9e62 76bd
00000120: a8af acbd eb20 5bbd b625 16bd d938 99bd
00000130: f64b 233d edcb 13bd 8f4e c73b d559 9e3d
00000140: fc72 cebd 7040 843d dbeb 3cbd 2a03 823c
00000150: a202 a3bb b5ba a0bc af13 a8bd 8cfa b2bc
00000160: bfa3 4fbd b3b2 ac3d 796b eabc 537e 463d
00000170: 90cb 81bd b852 5e3d 7871 b73d a5ef 42bb
00000180: 88a4 debc e500 8fbc a969 833d 93ea 88bd
00000190: 8dbf 843d 87a4 b3bd 522c 0bbd c591 38bd
000001a0: 97c4 48bb e7c3 263d 9ef9 a9bd c665 3ebb
000001b0: 33c5 05be f173 d83c 07dd a4bd 1427 8ebc
000001c0: 3923 afbd 97a3 563c d0fe c8bd fa0f 923d
000001d0: 451d 80bd 2492 a73c fe68 633d 04aa 863c
000001e0: 4e08 fa3b 8c9d 33bd 96da bb3d 644b 1f3c
000001f0: 6b43 f1bd e073 80bd 874c 39bc c285 183d
00000200: 0f89 5abc 545f 133d 0dbb f13c e8ee 86bd
00000210: 9d9e 0dbd 442c de3b ef35 8c3d f03e 04bd
00000220: 9449 b0bd 0af1 57bd 50f1 f4bd 28ce ae3c
00000230: f0c2 003d 1620 0dbe 6258 cdbd 4d6d 9f3b
00000240: 052c 8d3d 6ac6 cbbd 135a 033d 97eb dfbd
00000250: 18a0 c3bd e7c6 7fbe 1d31 a73c 14f2 fcbc
00000260: dbf3 6a3d f936 a1bd 3272 073d 0944 823c
00000270: 9b58 28bd aaa4 a3bc f3ed 063d 91bd 5abd
00000280: 70cf 1cbd 907f 903c d19f ae3d e65e d4bd
00000290: 1381 2dbd 5b18 33bd f0c0 9ebd e5d4 4cbd
000002a0: 32d0 4e3d 2f4d 9bbd 4f88 02bb 97ae 0dbd
000002b0: 5d85 88bd 00ae dcbc 24c0 493d 75d9 793c
000002c0: 40f8 b13c b36c ebbd ac94 83bc b91b e0bd
000002d0: bb97 403d 0b66 843d 069b 223d eba8 10bd
000002e0: 6676 323d cbe4 fa3a 4a5a bc3a 8b8f 083d
000002f0: f2a5 093d 1904 0ebe 5ff2 603d ab8b 5d3d
00000300: 9bfa 4d3d 7954 033d 0b1c 963c 905a 2d3c
00000310: d747 a43d d27d a3bd e1b0 513d 8de0 b9bd
00000320: 657d 60bd 3974 64bc bc30 9bbc a1b5 adbd
00000330: ede9 f13c dcf7 91bd 3b35 67bd 8c23 9dbd
00000340: c33e 3fbd bc68 513c 1157 52bd e501 45bd
00000350: 3a6d 02be 0671 0a3d c499 bdbd 0c8e a8bd
00000360: e1e4 57bd ecef a53d 8884 3b3d a8bc 843c
00000370: 639f db3a 6a2b 3f3d 42da 203d dd1b b8bd
00000380: 0a16 40bd 0ed1 16bc 8178 993d efef fe3c
00000390: bf3f eabc fbe2 183d 1f52 533d 8618 7d3d
000003a0: afc6 c53c 7641 0f3c 1b65 ebbd 37df 9fbc
000003b0: 8b08 123d b88e a8bc 0735 09bd 8c06 243c
000003c0: 5790 91bd 9c6e 1b3d aca0 6c3d 405c d2bd
000003d0: 1ad4 dfbb ab81 96bd fb72 5dbc 32b9 443d
000003e0: 011c fdbc 8b19 67bd 8193 9a3d 7288 00bd
000003f0: ee97 703d e502 02bc 2273 393d 0c65 dfbc
-0.10122462 -0.054111335 -0.08133403 0.08829095 -0.016058536 -0.00251729 -0.06968722 -0.0119568175
-0.09855355 -0.066586 -0.09868125 0.020257479 0.018413328 -0.085714616 0.10194394 0.011096132
0.07478079 0.032408755 0.06575237 -0.049223956 0.0378423 0.017534073 -0.053334974 -0.05696509
-0.04237094 -0.011799665 0.04434614 -0.06379518 0.0046562 0.086784035 -0.014235724 0.0053373817
0.01646089 -0.045874894 -0.00897 -0.09207657 0.028624028 -0.04180656 -0.047319043 0.040725183
0.07718879 -0.011854932 0.08799051 0.03429155 -0.067835405 -0.06210953 -0.02117172 -0.08503408
0.055920146 -0.048445694 0.057335712 -0.027319485 -0.029946508 0.049469166 0.035378106 -0.030887708
-0.056797724 0.028199105 0.005466096 -0.029316787 -0.009368406 0.027058678 0.051243436 0.07415026
-0.08826591 -0.061657164 0.051891934 0.08732831 0.01721014 -0.022150485 0.026612505 -0.060152642
-0.08431941 -0.05349819 -0.036657058 -0.07481546 0.039867364 -0.03608315 0.006082363 0.07731978
-0.10080525 0.06457603 -0.046123367 0.01587065 -0.004974679 -0.019620279 -0.08206879 -0.021847986
-0.05069327 0.08432522 -0.0286157 0.048460316 -0.063376546 0.054278105 0.08957189 -0.002974489
-0.027178064 -0.017456481 0.064166375 -0.066853665 0.06481848 -0.087716155 -0.033977814 -0.04506089
-0.0030634755 0.04071417 -0.08299564 -0.002905236 -0.13063507 0.026422473 -0.0804997 -0.017352618
-0.0855164 0.013100526 -0.098142266 0.071319535 -0.06255583 0.020455427 0.05552005 0.016438492
0.0076303845 -0.04385142 0.09172551 0.009722564 -0.11780437 -0.062721014 -0.011309749 0.037236936
-0.013338341 0.035979584 0.029508138 -0.065885365 -0.034575094 0.006780179 0.068462245 -0.032286584
-0.08607784 -0.052720107 -0.11960089 0.021338537 0.031435907 -0.13781771 -0.10026623 0.0048653246
0.06893162 -0.09949954 0.032068323 -0.10933607 -0.0955202 -0.24978219 0.020409161 -0.03087715
0.057361465 -0.07871813 0.03306789 0.015901582 -0.041100126 -0.019975979 0.03294177 -0.05340344
-0.038283765 0.017638952 0.08526576 -0.10369663 -0.042359423 -0.0437244 -0.07751644 -0.05000772
0.05049152 -0.07583081 -0.0019917672 -0.03459033 -0.06666062 -0.026938438 0.049255505 0.0152496
0.02172482 -0.11495342 -0.016062103 -0.10942788 0.0470197 0.06464776 0.039698623 -0.035317343
0.043569945 0.0019141672 0.001437017 0.03334002 0.033605523 -0.1386875 0.054918643 0.054088276
0.050287824 0.03206298 0.018323919 0.010580674 0.08021515 -0.07982983 0.051194075 -0.09076033
-0.054807086 -0.013943725 -0.018944137 -0.084819086 0.02953049 -0.071273535 -0.05644725 -0.07672796
-0.046690714 0.012781318 -0.051352564 -0.04809751 -0.12736979 0.033799194 -0.09257844 -0.08230218
-0.05270851 0.08102402 0.04578069 0.01620324 0.0016755875 0.046672262 0.039270647 -0.089896895
-0.046896018 -0.009205116 0.074936874 0.031120269 -0.02859485 0.03732584 0.05159199 0.061790965
0.024142591 0.008743634 -0.11493894 -0.019515617 0.03565268 -0.020575866 -0.033497836 0.0100113265
-0.07107609 0.037947282 0.057770416 -0.102715015 -0.0068307044 -0.07348951 -0.013516183 0.04802818
-0.030897142 -0.056420844 0.075476654 -0.031380124 0.05873864 -0.00793526 0.045275815 -0.027269863

fc.2.bias f4 [5]
00000000: 9079 dfbc a084 c2bb 5d55 f73c bd71 2d3e
00000010: 3d41 ae3c
-0.027279645 -0.0059362203 0.030192072 0.16937919 0.021271342
