models/actor1.pt (torch, 21267 bytes, 4 tensors)

fc.0.weight f4 [128, 31]
000000 bf 2e 00 be 70 7d a4 3c 40 0c 81 3c 84 c5 9f 3d
       -0.12517832 0.020079345 0.015752912 0.07801345
000010 7c 82 25 3d d8 96 92 bd 52 4c 05 3e 50 08 32 3d
       0.040407643 -0.071576774 0.13017395 0.04346496
000020 9c a6 56 3d e4 b4 2c 3e 8a 10 35 3e 07 01 0b 3e
       0.052404985 0.1686588 0.1768209 0.1357461
000030 48 7b f9 3c a9 6a b2 bd f9 9b cb bd 6c 15 17 3d
       0.030454293 -0.0871175 -0.09941859 0.036885664
000040 00 57 be 3a e4 74 2d bd 80 00 15 bc 4a 85 8b bd
       0.0014521778 -0.042347804 -0.0090943575 -0.06812532
000050 f3 e6 b0 3c 94 36 f4 bd d0 40 73 bd 7d d6 0b 3e
       0.0215945 -0.119244725 -0.059387982 0.1365604
000060 a6 21 e1 bd e9 c9 a4 bd 14 ec 5e 3d 00 bf 6b bc
       -0.10992746 -0.08046324 0.05442436 -0.0143888
000070 24 7a a7 3d d4 11 69 3d f7 51 b9 3d 40 5b d0 3d
       0.08177593 0.056901768 0.09048837 0.101736546
000080 fc 6f 8e be 72 c3 d0 bd 56 b9 e1 bd 64 57 a5 3d
       -0.27819812 -0.10193528 -0.11021678 0.08073309
000090 c8 84 4c bd ae e1 b1 bd 18 72 25 3d 0d aa eb bd
       -0.049931318 -0.08685623 0.04039201 -0.11507044
0000a0 74 c7 e0 3d 48 d8 79 3d 5f a4 1c bd f8 8e 2f 3d
       0.10975543 0.060997277 -0.038242694 0.042860955
0000b0 4c 2c 05 bd 28 b0 ac 3d d0 14 3a bd 33 9b 35 be
       -0.032512948 0.08432037 -0.045430005 -0.17734985
0000c0 e0 dd 0c 3e 8c 38 f2 3d 48 40 b6 bc f9 df 6b bd
       0.13756514 0.11827192 -0.022247449 -0.057586644
0000d0 7f 4b 13 3e 64 01 55 be c5 76 f7 bc 6c 8b aa bd
       0.14384268 -0.20801312 -0.030208 -0.08327374
0000e0 61 18 0d 3e 90 8a c6 bc 74 b0 e6 3d 99 32 07 be
       0.13778831 -0.024235994 0.112641245 -0.13202895
0000f0 8c eb 0c bd 6b 71 54 be 22 42 0b 3c 2f 59 3e bd
       -0.034404323 -0.2074639 0.008499654 -0.04647177
000100 fa 74 0b 3e 62 18 24 3e a6 da 04 3e 30 5c d2 3d
       0.13618842 0.16024926 0.12974033 0.102714896
000110 e8 24 32 be 3b 70 12 be 40 cf 44 3b 08 ce eb bc
       -0.17396891 -0.14300625 0.0030030757 -0.028784767
000120 38 7e 61 bd f6 ae 1d bd c0 a7 e1 bb f4 16 1a be
       -0.055052012 -0.038496934 -0.0068864524 -0.15047818
000130 44 cf 92 3d ac 7a 21 3d 3a e3 2e 3e ed ae 0d be
       0.07168439 0.03942363 0.17078868 -0.1383626
000140 36 a0 0c 3e 6c 69 c4 3d b5 1f 4b 3d 9b d2 26 3e
       0.1373299 0.0959042 0.049590785 0.16291277
000150 7c 81 9e bd cc 9b 4a 3c b1 d8 16 3e 55 f5 0f be
       -0.07739541 0.012366246 0.14731099 -0.1405843
000160 90 81 d6 3d 9d b1 01 be 90 6b 51 3c 30 cb f2 bd
       0.10473931 -0.1266541 0.012781993 -0.11855161
000170 d8 6c d3 bc da bc 41 3d 18 6a aa bd b4 62 51 bd
       -0.025808737 0.047299244 -0.08321017 -0.05111952
000180 4a 50 11 3e 19 fa b6 bd af 4c ee bd 13 b7 16 be
       0.14190784 -0.08934421 -0.1163572 -0.14718275
000190 28 8a 20 bd 90 2c 21 3e 7a 52 1e 3e b8 64 b3 3d
       -0.039194256 0.15739655 0.1546115 0.08759445
0001a0 db 8c 48 bd 98 33 6e 3d fa 99 2a be 1c 19 ce 3d
       -0.048962455 0.058154672 -0.166603 0.10063383
0001b0 99 d2 b9 bd ce c7 26 3e 50 15 a9 bc 48 c9 e6 3d
       -0.090733714 0.16287157 -0.020640045 0.1126886
0001c0 60 09 46 bc 1f 36 cd 3d 82 08 34 bc de bd 21 be
       -0.012087196 0.100200884 -0.010988357 -0.15795085
0001d0 7b a0 08 3e ac e8 c6 bd e0 e6 48 bd f0 3f 58 3d
       0.13342468 -0.097123474 -0.049048305 0.05279535
0001e0 56 75 11 be 40 3f 01 3e e4 a7 1c be 4d 35 eb 3d
       -0.14204916 0.12621784 -0.1529842 0.11484776
0001f0 72 16 7d bc 22 e1 d6 3c d8 03 8c bc d1 3c 13 be
       -0.015447246 0.026230399 -0.017091677 -0.14378668
000200 06 f4 03 3e 3c a8 14 3e f4 f7 50 bd 80 b1 ee bc
       0.12886056 0.14517301 -0.051017717 -0.029137373
000210 83 16 22 be 2e e2 89 3d 2e 3c 12 3e d6 2f c6 ba
       -0.158289 0.067325935 0.14280769 -0.0015120457
000220 18 d5 46 bd 7c b7 e3 3d e0 43 c1 3c 4c 17 33 be
       -0.048543066 0.11118981 0.023591936 -0.17489356
000230 80 fa 2d 3d 18 38 7e bd a2 d9 1e 3e ca 9d 2b 3e
       0.042475224 -0.062065214 0.15512708 0.1675941
000240 08 e1 a4 bd 0c 3d c2 bc 22 1d 78 bd 4f 7b b9 bd
       -0.08050734 -0.02371075 -0.06057466 -0.090567224
000250 7f e1 59 bd e6 d4 08 3e 32 83 2b 3e e0 f1 ff 3d
       -0.053193565 0.13362464 0.16749266 0.12497306
000260 cc 6b 75 3d 8e 2c 25 be 1e aa 25 3d a5 46 7a 3e
       0.059917256 -0.16130278 0.04044544 0.24441011
000270 00 ce 2a 3c 7e 80 f1 bd 1e 91 8b 3d f0 46 79 3c
       0.010425091 -0.11792086 0.06814788 0.015214667
000280 b2 2f 1e 3e 1c 9b de 3d a0 41 9d bb 54 63 40 3d
       0.15447882 0.108694285 -0.004799083 0.046969727
000290 c6 8d 99 bd 3e d0 85 3d b1 44 33 be 70 49 31 3e
       -0.07497744 0.0653386 -0.17506672 0.1731317
0002a0 7c 58 c5 3d 54 34 57 bd 30 a2 08 3e 7a 0c 09 be
       0.09636018 -0.05254014 0.1334312 -0.13383666
0002b0 80 37 8e 3d 40 44 73 3c 75 a7 8d bd be 77 c1 3d
       0.069441795 0.014847815 -0.069167055 0.09446667
0002c0 46 b6 f4 bc c9 a5 6c 3d 9b b5 af 3d a1 09 0b be
       -0.029872071 0.057775293 0.0857956 -0.13577892
0002d0 8f 1a 2e bd 25 b0 96 bd 6c 3d 5a bd 9c 2a b3 3d
       -0.042505797 -0.07357816 -0.053281233 0.087483615
0002e0 98 ef 41 bd 62 74 39 be ec 02 7d 3d a8 02 55 bd
       -0.047347635 -0.18110803 0.061770365 -0.052004486
0002f0 f0 e4 07 bd 40 e5 c3 3c c4 da 05 bd 72 47 05 be
       -0.033177316 0.023913026 -0.032679334 -0.13015535
000300 47 1b 33 be 64 3c 21 bd 32 93 34 3e c6 e7 8e 3d
       -0.17490874 -0.039364234 0.17634276 0.06977801
000310 8c e1 d9 3d 30 86 31 3c b1 be 10 be 05 34 e0 bd
       0.10638723 0.010835215 -0.14135243 -0.10947422
000320 ee 4f 18 be 90 40 c0 bc 08 b6 0f 3e 81 3d 21 be
       -0.14874241 -0.023468286 0.14034283 -0.15746118
000330 ad 68 ab bd b4 35 ee bd d8 fa 81 bc d2 e0 33 3e
       -0.08369575 -0.11631337 -0.015866682 0.17566231
000340 c5 0f 1d be e9 1c 30 be 80 8b a8 3d bb 21 33 be
       -0.15338047 -0.17198528 0.082297325 -0.17493336
000350 08 62 01 3e 50 54 cb 3c 48 fc e5 3c 72 fc 1d 3e
       0.12635052 0.024820477 0.028074399 0.15428331
000360 d0 13 c4 3c 1f 9f a2 bc 31 dd 49 be 0e a2 1c 3e
       0.023935229 -0.019851265 -0.19713284 0.15296194
000370 7d e7 32 be 7c b9 f0 3d dc ec 01 be 00 50 b0 39
       -0.17471118 0.11754128 -0.12688011 0.0003362894
000380 8c 5b 6c bd cc 6e 0c be 8c 50 e7 3d 8d 0b d9 bd
       -0.057704493 -0.1371414 0.1129466 -0.10597906
000390 bb 8b 0f be f0 07 42 3d cc 4f af bd d0 49 ef bc
       -0.14018147 0.04737085 -0.08560142 -0.029210001
0003a0 c0 f4 85 3c ec 94 09 be b1 71 31 be 9a 47 31 3e
       0.016352057 -0.13435715 -0.17328526 0.1731247
0003b0 6b 74 b0 bd bb af 9a 3c d0 8f 18 bd b0 85 0d be
       -0.08615955 0.018882623 -0.037246525 -0.13820529
0003c0 ef 6b 9c bc f2 46 db 3d 76 ee 5d bd 7c 7e 1b 3e
       -0.019094435 0.10706891 -0.054182492 0.15184969
0003d0 20 8b 61 3d ea d8 20 3e a2 6d 36 3e 2c d6 19 3d
       0.05506432 0.15707746 0.17815259 0.037557766
0003e0 ae 7b 1b 3e 66 a3 63 3e db c5 19 be 58 f7 0e 3e
       0.15183899 0.222303 -0.15016882 0.13961542
0003f0 f8 0a 0a 3e dc 11 2d 3e 75 2a 35 be f8 45 e4 bc
       0.13480747 0.16901344 -0.17691977 -0.027865395

fc.0.bias f4 [128]
000000 d1 33 4c be 61 1d f2 bd ae 42 45 be fd 5c 25 be
       -0.19941641 -0.1182201 -0.19263718 -0.16148753
000010 86 57 34 be f8 1e 18 be 91 1c 2a be bd 39 23 3d
       -0.17611513 -0.14855564 -0.1661246 0.039849985
000020 fe 44 8b 3d d4 6c 0f 3e 62 9e bf bb dd 72 df 3c
       0.068002686 0.14006358 -0.005847738 0.02727645
000030 75 0f e1 3c de 5f fe 3b 19 37 41 3e 29 41 a2 bc
       0.02747319 0.007762893 0.18868674 -0.019806461
000040 c5 3c f4 3c de c7 ae bd 67 d4 56 3d 68 42 87 3e
       0.029814133 -0.085342154 0.052448656 0.2641785
000050 17 ab f9 bd cf 8c 8c 3e c7 16 1c be 48 fa 60 3c
       -0.12190836 0.27451178 -0.15243064 0.013731547
000060 21 b1 02 bd b8 2b a2 bc 12 23 4c 3c 14 da 14 bd
       -0.031907205 -0.019796237 0.012459533 -0.036340788
000070 eb 8a cb 3c ca 38 86 bd 42 cb 89 3d 2f a7 e2 3d
       0.024846515 -0.065538004 0.067282215 0.11067044
000080 62 58 36 bd 30 57 bf 3c 82 57 1f be d3 02 0c 3e
       -0.044517882 0.023357004 -0.15560725 0.13672952
000090 96 e8 79 3e 0e 99 e7 3d c6 d9 96 3e c1 49 45 3e
       0.2440513 0.1130849 0.29463023 0.19266416
0000a0 6c 6a 37 be 9e df cd bd 8c c2 0b 3e 00 30 8c ba
       -0.1791169 -0.10052417 0.13648432 -0.0010695457
0000b0 4b b8 70 3e c2 96 a2 3e 92 4d c1 3c 2f 87 1f 3e
       0.23507802 0.31755644 0.023596559 0.15578912
0000c0 9b 82 2b be 70 a7 92 3e d0 3a 3e 3d 21 56 50 3e
       -0.16749041 0.2864337 0.046442807 0.20345356
0000d0 32 ad 1f bc 45 e1 03 bd a5 a8 f6 bd 49 1e 2f be
       -0.009745883 -0.032197256 -0.12043885 -0.17101397
0000e0 86 b5 7b 3e a8 aa ea bc d1 a3 c0 3c d9 bf ab bd
       0.24580964 -0.028645828 0.023515614 -0.083862014
0000f0 96 b9 16 3e 29 1b 40 3e e8 f1 da bd 32 89 34 3e
       0.14719233 0.18760361 -0.10690671 0.17630461
000100 a2 1d 8f 3b de 1e 28 bd d7 49 10 bd 0d 6a 37 3e
       0.004367546 -0.041045062 -0.03522667 0.17911549
000110 f3 01 c8 3d f7 97 85 3d 4f 8d 86 bc 9e 69 da bd
       0.09765997 0.065231256 -0.016424803 -0.10664676
000120 93 8b 89 3e 9d bf 63 3c 95 ac 39 be fe 5b c5 bc
       0.268643 0.013900665 -0.18132241 -0.024091717
000130 cd 7a 6c 3d 0a 10 ed 3d 26 82 18 be fd bd 8b 3d
       0.0577343 0.11575325 -0.14893398 0.06823347
000140 e2 ec 46 3e 59 18 f0 3d f5 f4 28 3e 0a 9d 1a be
       0.19426301 0.11723394 0.16499694 -0.15098968
000150 25 6e e5 3d ac 79 fe bd cb 5c 4a 3d f6 89 10 3e
       0.11202649 -0.12425551 0.0494049 0.14115128
000160 91 41 8f ba 67 7a 08 3e 6e 63 0b be d7 d4 98 3e
       -0.0010929574 0.13327943 -0.13612148 0.29849884
000170 9e 31 16 3e e0 4d 07 be 2f c1 d9 bd 48 a6 51 3d
       0.14667365 -0.132133 -0.1063255 0.05118397
000180 e2 e1 cc 3d 92 de ad bd 41 88 3d be 64 4c e5 bd
       0.10004021 -0.084897175 -0.18509008 -0.11196211
000190 e2 24 f6 bc c8 af 11 be 63 f9 04 3c b8 9c e6 bd
       -0.030046884 -0.14227211 0.008116099 -0.112603605
0001a0 72 72 f2 3d 92 e6 db 3d b2 15 7d 3b e8 10 11 bd
       0.11838235 0.10737337 0.0038617668 -0.035416514
0001b0 b5 49 1a be 77 42 3b bd 4b a1 c6 3d 41 d4 61 3d
       -0.1506718 -0.045717683 0.09698733 0.05513406
0001c0 0f 1e 83 bd 17 19 bb bd 2b cb 86 3d 9d 5b 0a 3e
       -0.064022176 -0.09135645 0.0658172 0.1351151
0001d0 6f cc f5 3d ec eb c4 bd d1 74 90 bd a0 bc 4a bd
       0.12001883 -0.09615311 -0.07053531 -0.049496293
0001e0 b7 9c a9 3d d6 f1 ae 3d 1f a1 e6 bd b7 4c a1 3d
       0.08281844 0.0854222 -0.112612 0.0787596
0001f0 d1 49 4c 3e cc ac bc 3d 89 63 c7 3d 05 ea ca bd
       0.19950034 0.09212646 0.09735782 -0.09907917

fc.2.weight f4 [5, 128]
000000 db 4e cf bd 4b 9d 5d bd 9b 9b c8 bd 14 b5 86 3d
       -0.10122462 -0.054105084 -0.097953044 0.06577507
000010 31 8d 83 bc ff ae 62 bd 2c b8 8e bd 7f bb 51 bd
       -0.016058536 -0.05534267 -0.06968722 -0.0512042
000020 c3 d2 20 be 13 6e e0 bd a7 33 1e be 19 1e dc 3b
       -0.15705399 -0.10958495 -0.15449391 0.006717455
000030 9e e2 9b 3b ed b1 c0 bd f6 17 3e 3d c5 a7 2a bd
       0.0047572395 -0.09408937 0.04640957 -0.041663904
000040 ac 26 99 3d a9 0b c4 bc 2e 77 1e 3d 4c c3 d7 bd
       0.07478079 -0.023931341 0.038687877 -0.10535297
000050 87 00 1b 3d 8b 69 20 bd c6 75 5a bd 83 1f 69 bd
       0.0378423 -0.039163154 -0.053334974 -0.056914818
000060 b0 82 c7 bd 1d 9d 8a bd e3 a0 11 bc 0c a7 82 bd
       -0.097417235 -0.06768248 -0.008888456 -0.06379518
000070 09 93 98 3b 11 1c 09 3d 5f e3 94 bd 34 e5 ae 3b
       0.0046562 0.03347403 -0.0726993 0.0053373817
000080 aa 9d 03 bd a4 c4 3d bd e8 f6 12 bc 89 35 17 be
       -0.032132782 -0.04633011 -0.00897 -0.14766516
000090 33 1d 28 3a 9e cc c5 bd 8b a4 d1 bd 02 3a d9 3c
       0.00064130424 -0.09658168 -0.10236462 0.026516918
0000a0 9b 91 49 3d 30 3b 42 bc 9d 83 f1 3c 4c 75 0c 3d
       0.049211126 -0.011854932 0.029481703 0.03429155
0000b0 32 1a 9c bd 92 88 ed bd 8e 88 9e bd 3d 86 0a be
       -0.07622184 -0.11598314 -0.077408895 -0.1352777
0000c0 86 0c 65 3d 4f 15 d9 bd da d8 6a 3d d7 c1 9a bd
       0.055920146 -0.105997674 0.057335712 -0.07556503
0000d0 78 ea aa bd 8b 5f 1c 3c a2 e8 10 3d 38 08 fd bc
       -0.083455026 0.009544264 0.035378106 -0.030887708
0000e0 fe ba d7 bd f1 33 e7 3c 1a 08 a8 bc 49 4e 8f bd
       -0.10533713 0.02822301 -0.020511676 -0.069973536
0000f0 13 54 19 bc 7c de dc bc b8 bd 18 3d 98 f7 07 3d
       -0.009358424 -0.026961558 0.037290305 0.03319511
000100 bc e8 c0 bd 9e a8 f4 bd 86 3a c0 3c f9 c0 16 3d
       -0.094193906 -0.11946224 0.023465406 0.036805127
000110 6d a3 62 3b a8 6f a0 bd eb 74 da 3c 2a 5b 76 bd
       0.0034582273 -0.07833797 0.026667079 -0.060145535
000120 bb ae bd bd de e2 d6 bd 55 12 16 bd 34 ac 02 be
       -0.09261843 -0.1049249 -0.036638577 -0.12761003
000130 ca 57 23 3d c1 0a c2 bd 9c 25 f3 bc f3 59 ab 3c
       0.039878644 -0.094747074 -0.02968102 0.020916915
000140 74 55 1d be 65 c4 53 3c b9 37 af bd b3 e0 07 bd
       -0.15364629 0.012925242 -0.0855555 -0.033173274
000150 4d a3 81 bd df 45 92 bd 87 12 a8 bd 8c fa b2 bc
       -0.06329975 -0.07142233 -0.08206659 -0.021847986
000160 8c ea db bd d8 a9 2b 3d 96 c5 67 bd ec 40 ff bb
       -0.10738096 0.041910022 -0.056584917 -0.0077897217
000170 90 cb 81 bd 77 cf 69 3c de 64 14 3d 48 fd 75 bd
       -0.063376546 0.014270655 0.036229007 -0.060056
000180 88 a4 de bc a5 62 93 bd 74 e5 8d 3d 91 ff a5 bd
       -0.027178064 -0.07196549 0.0692853 -0.08105386
000190 8d bf 84 3d 06 a0 b3 bd e8 07 7b bd c5 91 38 bd
       0.06481848 -0.087707564 -0.061286837 -0.04506089
0001a0 71 6d 72 bd ef b7 59 3c 38 5c e3 bd c6 65 3e bb
       -0.059186403 0.013288482 -0.11101574 -0.002905236
0001b0 33 c5 05 be 8b 89 d8 3c b5 af 9b bd 14 27 8e bc
       -0.13063507 0.026432773 -0.07601873 -0.017352618
0001c0 39 23 af bd d3 5e e9 bc ec ee c8 bd 3c d6 89 3c
       -0.0855164 -0.028487599 -0.09811196 0.016825788
0001d0 f5 fd e2 bd 4f a3 a7 3c 6c b1 a7 3c 44 14 b3 bc
       -0.11083595 0.020463614 0.020470344 -0.02186025
0001e0 b1 bb 40 bd ec cf c3 bd 35 bd 9e 3d 7c 96 34 bd
       -0.047053996 -0.09561142 0.07750932 -0.044088826
0001f0 1d 4d 15 be 59 5c b9 bd 87 4c 39 bc c2 85 18 3d
       -0.14580198 -0.09050817 -0.011309749 0.037236936
000200 0f 89 5a bc 21 d3 c1 3c 7a d8 11 3b 91 b7 bd bd
       -0.013338341 0.023660244 0.0022254274 -0.09263528
000210 9d 9e 0d bd 77 e9 09 bc ef 35 8c 3d a8 4f 4c bd
       -0.034575094 -0.008417479 0.068462245 -0.049880654
000220 ce 38 f6 bd ed 21 ad bd dc a3 20 be 57 93 ba 3c
       -0.120225534 -0.084537365 -0.15687507 0.022775335
000230 c6 44 07 3d b8 16 0e be 89 c6 f2 bd bf fc 8e bc
       0.03302457 -0.13875854 -0.11854274 -0.017454503
000240 05 2c 8d 3d 69 d7 09 be b8 7e 2c 3d 4c 8c 11 be
       0.06893162 -0.13461079 0.042113036 -0.14213675
000250 18 a0 c3 bd c0 0f 93 be 1d 31 a7 3c 81 cc fe bc
       -0.0955202 -0.28722954 0.020409161 -0.031103374
000260 db 1a bd 3c 65 65 c5 bd 28 90 5b 3b f2 48 87 3c
       0.023084095 -0.0963848 0.0033502672 0.016514275
000270 9b 58 28 bd 4f 8b 4f bd b4 4e 75 b9 91 bd 5a bd
       -0.041100126 -0.050669964 -0.0002339434 -0.05340344
000280 82 6e 58 bd af 59 8d 3c d1 9f ae 3d da 46 06 be
       -0.052839763 0.017254679 0.08526576 -0.13112965
000290 8d 3e c4 bc 71 5d 7b bd f1 e8 d1 bd 08 50 7a bd
       -0.023955608 -0.06136841 -0.10249508 -0.06111148
0002a0 29 6f 87 3d 2f 4d 9b bd 14 40 b3 bc 97 ae 0d bd
       0.06612999 -0.07583081 -0.02188114 -0.03459033
0002b0 48 8f 8e bd 74 ad 65 bd 23 bb a5 3c 9d 8e 49 bc
       -0.069609225 -0.05607362 0.020230835 -0.012302068
0002c0 40 f8 b1 3c d6 64 17 be ac 94 83 bc e0 c9 10 be
       0.02172482 -0.1478456 -0.016062103 -0.14139509
0002d0 05 f8 4f 3c c9 c4 01 3d 06 9b 22 3d eb a8 10 bd
       0.01269341 0.03168181 0.039698623 -0.035317343
0002e0 04 88 98 3c c1 e3 db bb d5 fb f7 bc 05 a9 c4 3a
       0.018619545 -0.0067105 -0.03027145 0.0015003985
0002f0 7a 60 ad 3c 10 35 2f be c7 c5 8c 3d a9 36 05 3c
       0.021164168 -0.17110085 0.068736605 0.008130708
000300 1b e5 f5 3c 09 36 37 3c 76 5e ed bb c6 4b 2c bb
       0.030016473 0.011182317 -0.0072439266 -0.0026290282
000310 27 69 a8 3d 7a b7 c9 bd ea a0 57 3d 1b f0 d6 bd
       0.08223181 -0.098494485 0.052643694 -0.10495015
000320 f3 29 25 bd a3 82 2c bd 2e 9b f0 bc f1 61 d8 bd
       -0.04032321 -0.042116772 -0.02937087 -0.10565556
000330 b7 28 98 3c fc 2a d1 bd e8 61 93 bd 62 78 df bd
       0.018574102 -0.10213277 -0.071964085 -0.10911633
000340 e5 af 91 bd ea 87 9d bc fd 30 c3 bd 2f 67 7d bd
       -0.07113627 -0.019229848 -0.09530828 -0.06186598
000350 7e fb 25 be bd a6 85 3b 46 bd de bd 0c 8e a8 bd
       -0.16209218 0.0040787146 -0.10875945 -0.08230218
000360 2e 8d 99 bd 6b 54 46 3d 89 59 7d 3d c8 4b 7c bc
       -0.07497631 0.04842035 0.061852966 -0.015398927
000370 63 9f db 3a d5 8d b8 3a 97 e4 1c 3c 24 5c df bd
       0.0016755875 0.0014080355 0.009575984 -0.10906246
000380 0a 16 40 bd 02 bc dc bc 6f f1 98 3d eb ed ce 3c
       -0.046896018 -0.026945118 0.07467925 0.025259933
000390 bf 3f ea bc 43 44 c0 3c d7 53 99 3c 97 18 7d 3d
       -0.02859485 0.02347005 0.018716736 0.06179103
0003a0 4d e6 99 b9 0c dc 28 3c 0e e5 d5 bd 37 df 9f bc
       -0.00029354022 0.0103063695 -0.10444079 -0.019515617
0003b0 4c 7d 14 3d 86 c3 06 bd 63 84 0c bd 8c 06 24 3c
       0.036252305 -0.03290131 -0.03430594 0.0100113265
0003c0 57 90 91 bd aa 91 be 3b 26 59 59 3d 89 36 0b be
       -0.07107609 0.0058157044 0.053063534 -0.13595022
0003d0 49 dd 03 bd 4a 78 96 bd 6e ca f2 bc 27 70 94 3c
       -0.032193456 -0.07347162 -0.029637542 0.018119885
0003e0 51 22 87 bd f3 c4 b5 bd 20 b7 81 3d b0 9a 87 bd
       -0.06598342 -0.08875456 0.063337564 -0.06621301
0003f0 56 9d 9c 3d b5 a5 0d 3b 22 73 39 3d 0c 65 df bc
       0.07647197 0.0021613662 0.045275815 -0.027269863

fc.2.bias f4 [5]
000000 35 74 a0 bd 90 39 1a bd b2 23 1b bb e9 ba 5a 3e
       -0.07834665 -0.037652552 -0.00236724 0.21360363
000010 50 7b 98 bc
       -0.018613487
