models/actor.pt (torch, 21257 bytes, 4 tensors)

fc.0.weight f4 [128, 31]
00000000: 3aa7 753d d191 2cbe 9ba5 25be de10 28be
00000010: c234 053e b075 143d 5b86 e2bd cc1b db3d
00000020: b876 efbc ab7a a2bd 6be9 743e da08 033e
00000030: a82f e53c 788d 35bd b038 f5bd 3407 e83d
00000040: 980d 3ebd 52be 13be 9c52 983d 286b df3d
00000050: 68da 213e 1ce6 4fbd b424 c6bd 92c4 9f3d
00000060: 4c33 06be d43c 24be 2048 303e 6471 59bd
00000070: 9229 183e 7c50 b23d b83d 8abd 30ba 82be
00000080: 4ab3 1cbe 3ece b4bd 5aec a7bd 9090 4d3c
00000090: 38b9 9a3c 445b 1dbd 1837 bbbc 9020 23be
000000a0: 443b 96bd 225f 143e 5c9d c7bd f074 e13d
000000b0: 6898 13be cc32 343d 08ef e73d c93c 12be
000000c0: a668 043e 2f1c 1fbe 8c82 2fbe e14a 2bbe
000000d0: 5e4b 48bd 033f c43c 6b29 f73d fb42 dabc
000000e0: 08ad 2b3d 9807 7cbd d0f0 27bd 8097 913c
000000f0: 80fd 283d 27b1 8f3d 45ec 183e 559f b23d
00000100: 00b0 f13c 08d8 b6bc 16e0 013e 84bf 003e
00000110: b0af 0a3e 68ad 1fbe 0e77 0fbe a6e5 163e
00000120: 65d4 943d 1b5c a53e 0a35 20be 186a f23d
00000130: 0be3 a2bd c058 5fbd 8404 a03d 0877 163e
00000140: b014 0f3c 3b3c 1fbe 3e3e d0bc 5135 dd3d
00000150: 3fd3 5d3d 4aba 793c 1073 463e fd8c 86bb
00000160: 42d5 82bd c023 0bbd 7cfb 10bd 78fe b5bc
00000170: 06a4 1c3e 740a 28be a3cf cfbd a237 0d3e
00000180: b827 95bd 745f 8abd d4f5 333e b0fd 0d3c
00000190: 903d b03d 0014 18be d3ad cebd cc94 b0bd
000001a0: aadb b53d 5c01 5ebd 5094 d33d 44ce 313e
000001b0: 706b 02be 067a 1bbe 7aee 6bbd b0ee 213e
000001c0: 0088 fbba 514e cabc 0ba4 383d 2adf 08be
000001d0: c2f5 1f3e 3fdd 753d 26ef dd3d c4cf d53d
000001e0: 80e5 0c3e 6866 3e3d 0cce 493d ec28 4bbe
000001f0: 69fc 983c fe7e 2c3d 8083 bc3c b2c8 7dbd
00000200: c49d c63d ee63 1c3e 34be 1d3d ae30 91bd
00000210: ea0b 283e a0f0 1a3e 80d6 1dbe 8054 f53d
00000220: 6f6b e6bd c002 683d a8ea 0f3e ad30 24be
00000230: b4ff 5abd 541f 363e ce3e 03be 247c dc3d
00000240: a888 22be 0a76 d1bd e799 e9bd af1d d43d
00000250: 72e6 18be c7fe 363e 9885 843d 406f e53c
00000260: 9005 1d3c a02a 033d 1f6e eb3d 6f53 913d
00000270: 1fe2 3abe fe89 ebbd fa04 fabd 3006 7a3c
00000280: e824 df3c d8d7 25bd c4f6 2d3e 3876 ec3c
00000290: 8093 18bd 6e53 d1bd d23a ffbd 18d4 06be
000002a0: f4a2 353d 0053 7abc fa51 22be 6231 853d
000002b0: 8065 21be d4c8 86bd 3a7a 17be a364 383e
000002c0: bdd4 133e e695 013d 434c 55bd a307 75bd
000002d0: 7c35 37be b33b 22be 4058 093d 8f55 a9bd
000002e0: 2415 6b3d d421 ac3d e2bf cc3d 5b59 babc
000002f0: ec64 c13d 7089 2cbc dc11 b9bd 0417 393d
00000300: 4e8a 063e 4a85 23be ccbf f53d 3aa9 353e
00000310: b018 1fbe 32e9 51be e4e7 873d 40d1 223c
00000320: ee94 313e 80a0 963b c052 733b 4601 0c3e
00000330: 5857 1d3e 6435 38bd 7fff 8b3e 791f 3cbe
00000340: f9d6 183e bdf5 78be 06c1 643e ed6a b73c
00000350: 100e 873c f881 b63d bd50 8fbd 80f2 df3a
00000360: 8967 823e 965b cebd 3e74 1abd 204e 11bc
00000370: 148f 183e 6c05 bebd 3095 4dbd 4418 8d3d
00000380: d0ec 32be 9e26 013e 7c4c ce3d 2e5a 083e
00000390: 67bc 8c3e 3a7e 1cbe 5349 e5bd 9674 17be
000003a0: d830 313e 80aa e93d a01c 5c3d e025 083d
000003b0: 3876 ce3c 8532 c63c e60d dd3c 6fb5 233e
000003c0: fe35 11be cd7e 413c ed40 e93d 8087 a8ba
000003d0: f42a f23d 36bd 14be 347d 20be bd9b 8abd
000003e0: 29fd 983d db5f 583c 80a2 fa3b 9826 983d
000003f0: f39c 14be 60b6 143c d0d1 c63c 584a a8bc
0.059973933 -0.168525 -0.16176455 -0.16412684 0.13008407 0.036245048 -0.110607825 0.10698661
-0.029231414 -0.07933553 0.23917167 0.12796345 0.027976826 -0.04432437 -0.11973703 0.11329499
-0.046399683 -0.1442807 0.074376315 0.1090911 0.15805972 -0.05075656 -0.09674969 0.07801165
-0.13105506 -0.16038829 0.17215014 -0.053086653 0.14859608 0.087067574 -0.06750053 -0.25532675
-0.15302768 -0.088284 -0.08199377 0.012546673 0.018887147 -0.038417116 -0.02285342 -0.1593039
-0.07335523 0.14489415 -0.09746811 0.11008632 -0.14413607 0.043993756 0.113248885 -0.14281
0.12930545 -0.15538095 -0.17139643 -0.16727783 -0.0489 0.023955828 0.12068447 -0.026643267
0.041913062 -0.06153068 -0.04100114 0.017772436 0.04125738 0.07016211 0.1493388 0.087217964
0.029502869 -0.022319809 0.12683138 0.12573057 0.13543582 -0.15593493 -0.1401026 0.14736041
0.072670735 0.32296833 -0.15645233 0.11836642 -0.07953461 -0.054527998 0.07813361 0.14693844
0.00873296 -0.1555032 -0.025420304 0.10801185 0.054156538 0.015242169 0.1937983 -0.0041061626
-0.06388332 -0.03396964 -0.035396084 -0.022216067 0.15296945 -0.16410238 -0.101470254 0.13790753
-0.072829664 -0.067564875 0.17574245 0.008666441 0.08605492 -0.1485138 -0.10091748 -0.08622131
0.08879788 -0.054200515 0.10331023 0.1736384 -0.12736297 -0.15183267 -0.057600476 0.15813708
-0.0019190311 -0.024695547 0.04507832 -0.1336638 0.15621093 0.06002545 0.108366296 0.10440019
0.13759422 0.04648438 0.049268767 -0.19839829 0.018675046 0.042113297 0.023011923 -0.061958976
0.0969806 0.15272495 0.03851147 -0.07089363 0.16410795 0.15130854 -0.15413857 0.11979008
-0.1125096 0.056643248 0.14054358 -0.16034193 -0.053466514 0.17785388 -0.12816927 0.107658654
-0.15872443 -0.10227592 -0.11406308 0.10357224 -0.14931658 0.17870627 0.064707935 0.02800715
0.009583846 0.032023072 0.11495613 0.07095992 -0.18250321 -0.11500929 -0.122079805 0.015260264
0.027239278 -0.040489048 0.16988665 0.028864965 -0.037250042 -0.10220991 -0.12462391 -0.13166845
0.044344857 -0.015278578 -0.15851584 0.0650356 -0.15761375 -0.06581274 -0.1479272 0.1800714
0.14436622 0.031637095 -0.052074682 -0.059821736 -0.17891496 -0.15843086 0.033531427 -0.08268272
0.05739321 0.0840489 0.09997536 -0.022747686 0.094430774 -0.0105308145 -0.090366095 0.045187965
0.13138697 -0.15968814 0.11999473 0.17740336 -0.15536761 -0.20499113 0.066360265 0.009937584
0.17341968 0.00459677 0.003712818 0.13672361 0.1536535 -0.044972792 0.27343366 -0.18371381
0.14925756 -0.24312492 0.22339258 0.022389853 0.016486198 0.08911508 -0.069978215 0.001708582
0.25469616 -0.100760624 -0.037708513 -0.008868724 0.1489833 -0.09278378 -0.050191104 0.06889394
-0.1747315 0.12612388 0.10073182 0.13315651 0.2748749 -0.15282527 -0.11195626 -0.14790568
0.17303789 0.114094734 0.053738236 0.033239245 0.025202855 0.024194011 0.026984166 0.1598718
-0.14180753 0.011810017 0.11389337 -0.0012857765 0.11824599 -0.14525303 -0.15672761 -0.06767986
0.074701615 0.0132064475 0.007648766 0.07429236 -0.14512996 0.009076685 0.024269968 -0.020543262

fc.0.bias f4 [128]
00000000: 8000 30bd b9cb 0dbe f6f7 39bc 26bb b0bd
00000010: b145 ff3c 11f3 39bd c6fd 593e 63a7 00bc
00000020: 2d07 c03d 41f3 cc3c 1c6e f23c 700c 213c
00000030: 58aa bf3b caf9 c83c f6e2 b93d e848 37bd
00000040: d807 1a3c 3780 a33d ce44 1cbd 738b b4bd
00000050: b297 08bd 4ec2 ebbc 0f65 273e 5da8 333c
00000060: 3824 97bd b905 e33d c060 5abd 91f7 1ebd
00000070: 18f0 72bc a5c2 c3bd d809 aabd ea04 86bd
00000080: 99ae 83bd 98c5 f33c 2543 933c 1b0d b2bc
00000090: 3eab 003e bf7c 173c b62c 2ebc c6a2 a53d
000000a0: 117c c93d d473 6b3c 041b 7a3e e086 b23c
000000b0: 7603 153e c6f8 083e 6335 3d3e 2a9e 66bc
000000c0: 4ff4 483e 5457 d73d 28f2 d73b 228f aa3c
000000d0: a75b 2fbd 1ea1 723d 3703 6abd b045 32bb
000000e0: ace9 07bd 6c7f 913d bbd5 393d 6f31 133e
000000f0: a653 49bd b3fe 04bc bf3b 9cbc 7378 14bd
00000100: 9a4b 023e 19ed 973d 2de6 09bc 8004 2a3c
00000110: b85d 2bbd e2ea 06bd 4ee8 91bd 182c 2ebd
00000120: a86b 59bd ad16 9b3b b78e 6e3b 1469 a33c
00000130: 52fd 0c3d 4970 ccbd 8afb 9cbc fce5 88bd
00000140: 4249 6738 4230 203b 44cf 0b3e ab03 01be
00000150: c919 213d d036 873e bc54 c3bc 6b1c 7bbd
00000160: 758d 08bd 009c 3e3d 5fc4 0dbd ffe3 55bd
00000170: f862 a7bc c670 69bd 0661 7fbd af66 523c
00000180: fb62 ab3d 10ba a53d 0665 453b f5ed babd
00000190: e170 5a3d ca3d 9bbd a6c5 dfbb 8b6c 1fbe
000001a0: 06c0 8dbd acc0 3d3e 2523 3dbc de98 3f3e
000001b0: 1f9b 863c d988 e23d de14 14bc e0f9 cf3d
000001c0: c578 76bd 6cd4 263e 2daf 04be 4e0c c1bd
000001d0: 67ea 083d 9f40 ea3d 42c5 883d bf3f 20be
000001e0: 6b9b 103e 59dc 1cbd fba5 5a3d 331b b83c
000001f0: 2b36 c63b 2c53 233e 7f7d a4bc 9191 ed3d
-0.042969227 -0.13847245 -0.011350622 -0.08629446 0.031161161 -0.04539782 0.21288213 -0.007852408
0.09376369 0.025018336 0.02959352 0.0098296255 0.005849164 0.024533171 0.090764925 -0.044747263
0.009401284 0.079834394 -0.038151555 -0.0881566 -0.033347793 -0.028779175 0.16347145 0.010965434
-0.07379955 0.11085076 -0.053314924 -0.038810316 -0.014827751 -0.0955861 -0.08302659 -0.06543906
-0.06429786 0.029757306 0.017976353 -0.021734765 0.12565324 0.00924605 -0.010630777 0.08087687
0.09838117 0.014370877 0.24424368 0.021792829 0.14552101 0.1337615 0.18477397 -0.014075795
0.19624446 0.105147034 0.0065901466 0.020820204 -0.042812016 0.059235685 -0.057131972 -0.0027202182
-0.03318183 0.07104382 0.045369845 0.14374326 -0.04915204 -0.008117366 -0.019071458 -0.03624768
0.12724152 0.0741827 -0.008416695 0.010377049 -0.041837424 -0.032938845 -0.07124387 -0.04252252
-0.053081185 0.004732928 0.0036400983 0.019947566 0.034421273 -0.09982354 -0.019162912 -0.06684491
5.514292e-05 0.0024442826 0.13653284 -0.12599055 0.03933123 0.26409006 -0.023844115 -0.0613064
-0.03333803 0.046535492 -0.034611102 -0.052219387 -0.020432934 -0.056992315 -0.062348388 0.0128418645
0.083684884 0.08092129 0.003012003 -0.09127418 0.053330306 -0.07580145 -0.0068289815 -0.1556875
-0.06921391 0.1853053 -0.011544024 0.18710658 0.01643139 0.11061258 -0.009038178 0.10155082
-0.06017377 0.1629197 -0.1295745 -0.09426175 0.03342667 0.11438107 0.06678249 -0.15649317
0.14121787 -0.038296077 0.053380948 0.022473907 0.006048938 0.15949696 -0.020079372 0.1160003

fc.2.weight f4 [5, 128]
00000000: 3c86 ea3d 48d6 c23b 4f49 37be 0106 2f3d
00000010: 90c7 88bc 1526 73bd 0b81 c5bc 830f 053d
00000020: 225a 86bd 4760 f5bc 8cfe d4bd 14b9 85bd
00000030: e687 593d f9c7 fe3c 2a1e 6bbd 4180 e8bd
00000040: 5695 323d bf6a 213c b7fb f8bd 802b a5bd
00000050: 33b3 cf3b aa03 e4bc 3e09 33bd f62e 1a3d
00000060: ae04 cbbb 1b63 82be 4923 853d 16bb a6bd
00000070: 1e30 053d 9b58 a2bc 184e 743d 0761 8dbd
00000080: ffd6 883a 192e a5bd 774e 9ebb 9b74 a0bd
00000090: cb78 25bd c6d8 0f3d ad78 a23d 1471 163d
000000a0: bbb3 88bd 5281 963d 957b 95bd 8ed5 4fbd
000000b0: ab98 b8bd 738c 34be 804e 76bc 235d 633d
000000c0: e97e 1dbe e40c bbbd 6832 ad3d 8664 96bc
000000d0: 5df2 c1bc 7b8c c7bd bb01 7e3d af67 43bd
000000e0: ea35 f83c da70 f2bd f982 0e3c 4e5c 01be
000000f0: e8df 763d 48ac b7bd ef75 1abd c73e c13d
00000100: 6739 a9bd 8e71 93bd 4082 053d ac2d cdbc
00000110: d332 0cbe 7a96 83bd 4bf1 3f3d b84d c63c
00000120: f86c 14bd 6450 c8bd b228 0fbd 367d ae3d
00000130: e1d8 f1bd 46b6 72bd 628a 30bd c2c3 953b
00000140: 1fad 893c a9b2 d03c ee0b 19be 6cca 5fbc
00000150: 19ba 443d 07f8 0ebb 56d2 32bd 6223 85bd
00000160: 5277 713c af9d f4bd 8767 cdbd eb7f 58bd
00000170: 305c a0bd bb19 ea3c 15a5 043d a8d7 87bb
00000180: af3e 5ebe bcab f3bd cc92 73bd 1035 5a3d
00000190: a0f2 ccbd 3ebe d13d bb48 efba e19e e1bd
000001a0: f116 30bc 08c3 3a3c f4ad 913d d1d3 13be
000001b0: ef29 933b b5ff 0cbe a62e 67bc bc3d aabd
000001c0: 0f3b 22bd 78fc 60bd dd89 80bd 7434 d7bd
000001d0: 3e7a 98bd 37ef dc3d 00c6 063c 7cac 02bd
000001e0: 8078 dc3b c24e 873d 472f 11be 5b24 59bd
000001f0: 58f3 aebb 7f1d f0bc aa61 2c3d 709d 6ebc
00000200: bed7 2c3d 399d 0e3d 1cb3 0cbd b744 eabd
00000210: ed1f f1bd 6160 73bd 2516 b2bb cd7d 983b
00000220: 31fb 0ebe 04b1 04be 8cfe 0fbe 374e b5bd
00000230: d6c1 213d 785c eabd 1fa4 92ba 292e bcbc
00000240: d2d0 833a 2d7a a9bd fe2d a3bd b7fa adbd
00000250: 0c4c 1a3c f541 88bd 8731 383d fa8a 613d
00000260: a46d f03c d24a 7bbe d619 163c 99dd 74bd
00000270: f5d2 e2bd f035 d6bc 9759 b93d 4815 963d
00000280: 4c09 24bd e972 2fbe 8eed 693a 41df e5bd
00000290: 7149 f2bd c394 4f3d a5a4 e13b fa4f 223d
000002a0: aad4 f1bd f3a9 5bbd 8f10 6abc 571e 91bd
000002b0: c86e e3bd 0737 0abe bdb1 c4bd 5942 7e3d
000002c0: 30f3 1ebd ec80 233a 7fa1 6a3d c738 99bc
000002d0: 52e9 adbd f271 ccbd 9d5c b23d cbc6 b23c
000002e0: 3324 0a3b ddb1 33bc c02c 9abc 9205 9bbc
000002f0: dc43 97bd 9f6a 6f3c d265 a1bd b958 af3d
00000300: 34ee 1bbe 895f f13b 6668 84bd 433e 0dbe
00000310: 9782 24be eb33 85bd ebb4 8dbd d063 41bd
00000320: ece9 d0bc 2a5f 39bd 601a e93c 205a f8bc
00000330: 646d cebd 771d c6bc a9fa 95bd 4b6a 49bd
00000340: 4c3f 2dbd fd9b 8bbd 724f 0dbe 1250 243d
00000350: 6cd7 36bd f326 28be 6d38 9fbd f0f1 b9bd
00000360: 3f9d e8bd 5f52 4abd 40a4 01bc 4fd3 f3bd
00000370: f506 2f3d d15d 55bd fe46 1ebd 12b4 c03b
00000380: e61b 0dbe 99c5 2cbd d7f7 9bbd 6dc1 c33c
00000390: 892d e7bd 11ff 473d c671 0cbe a18d 90bd
000003a0: 2f99 023d 4bad cbbd 151a 25bd 9581 1ebc
000003b0: 47f9 2ebd 4ff6 e4bd 61b2 bebd 8d7e cbbd
000003c0: 3180 40bc d2e8 29bc e906 12be 9252 cb3c
000003d0: 4965 19be 3a68 a33d 20c1 ddbd 0891 f3bd
000003e0: 863b 97bd 76d3 5abb bf4d 26be 9389 92bc
000003f0: 7918 4bbd 52e2 1cbe f492 5abd 96eb c9bd
0.114513844 0.0059459545 -0.17899059 0.042730335 -0.016696721 -0.05936249 -0.024109384 0.032485496
-0.0656016 -0.029953135 -0.104001135 -0.065294415 0.05310812 0.031101214 -0.057401814 -0.113525875
0.04359945 0.00985211 -0.12157386 -0.080649376 0.006338501 -0.027833778 -0.043709986 0.03764244
-0.006195626 -0.25466236 0.06500871 -0.081411526 0.03251659 -0.019817641 0.05964479 -0.06903272
0.001044005 -0.08065433 -0.004831131 -0.07834741 -0.0403984 0.03511884 0.07933173 0.036728933
-0.06674906 0.07348885 -0.07298962 -0.05074077 -0.09013494 -0.17631702 -0.015033364 0.055508744
-0.15380444 -0.09133318 0.0845688 -0.01835848 -0.023675138 -0.097435914 0.06201337 -0.047706302
0.030299146 -0.11837931 0.0086982185 -0.12632868 0.060272127 -0.08968407 -0.037710126 0.09435802
-0.08262902 -0.07199393 0.03259492 -0.025046192 -0.13691263 -0.064251855 0.046860974 0.024206981
-0.036236733 -0.09780958 -0.03495092 0.08519976 -0.118089445 -0.05925586 -0.043100722 0.0045704553
0.016806183 0.025475817 -0.14945957 -0.013659101 0.04802904 -0.0021815316 -0.043657623 -0.06500889
0.014737921 -0.11944138 -0.10029512 -0.052856367 -0.07830083 0.028576722 0.032383997 -0.0041455813
-0.217036 -0.1189799 -0.05946617 0.05327326 -0.100072145 0.10241364 -0.0018255928 -0.11016632
-0.010747657 0.011399038 0.07113257 -0.1443627 0.004491083 -0.1376942 -0.014110243 -0.08312556
-0.039607104 -0.054928273 -0.06276295 -0.105080515 -0.07445191 0.10787814 0.008225918 -0.031902775
0.006728232 0.06606819 -0.14178191 -0.053013187 -0.0053390674 -0.02931094 0.042085327 -0.014563903
0.042197935 0.034817908 -0.0343505 -0.114388876 -0.117736675 -0.059418086 -0.0054347687 0.0046536685
-0.1396301 -0.12958151 -0.14061946 -0.08852809 0.039491497 -0.11443418 -0.0011187828 -0.02297123
0.001005674 -0.08275256 -0.07967757 -0.08495086 0.009417545 -0.06653205 0.044969108 0.05506418
0.029349156 -0.2454026 0.009161433 -0.059781644 -0.11075393 -0.026148766 0.09050291 0.07328278
-0.04004793 -0.17133678 0.0008923643 -0.11224223 -0.11830414 0.05067898 0.0068860822 0.039627053
-0.118081406 -0.053628873 -0.014286174 -0.07085865 -0.11105114 -0.13497554 -0.096042134 0.062074993
-0.03880614 0.00062371674 0.05728292 -0.018703831 -0.08491768 -0.09982671 0.08709071 0.021823307
0.0021078705 -0.010967699 -0.018820167 -0.018923555 -0.0738599 0.014612823 -0.07880749 0.085618444
-0.15227586 0.007366125 -0.06465225 -0.13793282 -0.16065441 -0.06504043 -0.06919273 -0.04721433
-0.025502168 -0.04525677 0.02845496 -0.030316412 -0.10079458 -0.024183972 -0.073232 -0.049173634
-0.042296693 -0.06816862 -0.13799837 0.040115424 -0.044639036 -0.16421108 -0.07774434 -0.09079349
-0.11358117 -0.04939496 -0.007912695 -0.11905538 0.042731244 -0.052091423 -0.038641922 0.005880841
-0.13780174 -0.04218063 -0.07615631 0.023895944 -0.11287982 0.048827235 -0.13715276 -0.070582636
0.03188437 -0.099451624 -0.040308077 -0.009674449 -0.0427182 -0.11179792 -0.09311367 -0.09936247
-0.011749313 -0.01037045 -0.14260449 0.024819646 -0.14980043 0.07978864 -0.10827851 -0.11892897
-0.073844 -0.00333902 -0.16240595 -0.017887866 -0.049583886 -0.1532071 -0.0533628 -0.098593876

fc.2.bias f4 [5]
00000000: de4b 6fbd 0aa2 72bd a8e3 d9bb cc5d b43d
00000010: 25e8 65bd
-0.058421962 -0.059236564 -0.006649453 0.08806953 -0.056129593
